{"class_name": "Model", "config": {"name": "model_1", "layers": [{"name": "input_1", "class_name": "InputLayer", "config": {"batch_input_shape": [null, 12, 11, 1], "dtype": "float32", "sparse": false, "name": "input_1"}, "inbound_nodes": []}, {"name": "conv1_1", "class_name": "Conv2D", "config": {"name": "conv1_1", "trainable": true, "filters": 128, "kernel_size": [3, 3], "strides": [1, 1], "padding": "same", "data_format": "channels_last", "dilation_rate": [1, 1], "activation": "relu", "use_bias": true, "kernel_initializer": {"class_name": "VarianceScaling", "config": {"scale": 1.0, "mode": "fan_avg", "distribution": "uniform", "seed": null}}, "bias_initializer": {"class_name": "Zeros", "config": {}}, "kernel_regularizer": null, "bias_regularizer": null, "activity_regularizer": null, "kernel_constraint": null, "bias_constraint": null}, "inbound_nodes": [[["input_1", 0, 0, {}]]]}, {"name": "dconv1_1", "class_name": "Conv2D", "config": {"name": "dconv1_1", "trainable": true, "filters": 128, "kernel_size": [2, 2], "strides": [1, 1], "padding": "same", "data_format": "channels_last", "dilation_rate": [1, 3], "activation": "relu", "use_bias": true, "kernel_initializer": {"class_name": "VarianceScaling", "config": {"scale": 1.0, "mode": "fan_avg", "distribution": "uniform", "seed": null}}, "bias_initializer": {"class_name": "Zeros", "config": {}}, "kernel_regularizer": null, "bias_regularizer": null, "activity_regularizer": null, "kernel_constraint": null, "bias_constraint": null}, "inbound_nodes": [[["input_1", 0, 0, {}]]]}, {"name": "dconv4_1", "class_name": "Conv2D", "config": {"name": "dconv4_1", "trainable": true, "filters": 128, "kernel_size": [2, 2], "strides": [1, 1], "padding": "same", "data_format": "channels_last", "dilation_rate": [1, 4], "activation": "relu", "use_bias": true, "kernel_initializer": {"class_name": "VarianceScaling", "config": {"scale": 1.0, "mode": "fan_avg", "distribution": "uniform", "seed": null}}, "bias_initializer": {"class_name": "Zeros", "config": {}}, "kernel_regularizer": null, "bias_regularizer": null, "activity_regularizer": null, "kernel_constraint": null, "bias_constraint": null}, "inbound_nodes": [[["input_1", 0, 0, {}]]]}, {"name": "conv1_2", "class_name": "Conv2D", "config": {"name": "conv1_2", "trainable": true, "filters": 64, "kernel_size": [3, 3], "strides": [1, 1], "padding": "same", "data_format": "channels_last", "dilation_rate": [1, 1], "activation": "relu", "use_bias": true, "kernel_initializer": {"class_name": "VarianceScaling", "config": {"scale": 1.0, "mode": "fan_avg", "distribution": "uniform", "seed": null}}, "bias_initializer": {"class_name": "Zeros", "config": {}}, "kernel_regularizer": null, "bias_regularizer": null, "activity_regularizer": null, "kernel_constraint": null, "bias_constraint": null}, "inbound_nodes": [[["conv1_1", 0, 0, {}]]]}, {"name": "dconv1_2", "class_name": "Conv2D", "config": {"name": "dconv1_2", "trainable": true, "filters": 64, "kernel_size": [2, 2], "strides": [1, 1], "padding": "same", "data_format": "channels_last", "dilation_rate": [1, 3], "activation": "relu", "use_bias": true, "kernel_initializer": {"class_name": "VarianceScaling", "config": {"scale": 1.0, "mode": "fan_avg", "distribution": "uniform", "seed": null}}, "bias_initializer": {"class_name": "Zeros", "config": {}}, "kernel_regularizer": null, "bias_regularizer": null, "activity_regularizer": null, "kernel_constraint": null, "bias_constraint": null}, "inbound_nodes": [[["dconv1_1", 0, 0, {}]]]}, {"name": "dconv4_2", "class_name": "Conv2D", "config": {"name": "dconv4_2", "trainable": true, "filters": 64, "kernel_size": [2, 2], "strides": [1, 1], "padding": "same", "data_format": "channels_last", "dilation_rate": [1, 4], "activation": "relu", "use_bias": true, "kernel_initializer": {"class_name": "VarianceScaling", "config": {"scale": 1.0, "mode": "fan_avg", "distribution": "uniform", "seed": null}}, "bias_initializer": {"class_name": "Zeros", "config": {}}, "kernel_regularizer": null, "bias_regularizer": null, "activity_regularizer": null, "kernel_constraint": null, "bias_constraint": null}, "inbound_nodes": [[["dconv4_1", 0, 0, {}]]]}, {"name": "pool1", "class_name": "MaxPooling2D", "config": {"name": "pool1", "trainable": true, "pool_size": [3, 3], "padding": "same", "strides": [3, 3], "data_format": "channels_last"}, "inbound_nodes": [[["conv1_2", 0, 0, {}]]]}, {"name": "dpool1", "class_name": "MaxPooling2D", "config": {"name": "dpool1", "trainable": true, "pool_size": [2, 2], "padding": "valid", "strides": [2, 2], "data_format": "channels_last"}, "inbound_nodes": [[["dconv1_2", 0, 0, {}]]]}, {"name": "d1pool1", "class_name": "MaxPooling2D", "config": {"name": "d1pool1", "trainable": true, "pool_size": [2, 2], "padding": "valid", "strides": [2, 2], "data_format": "channels_last"}, "inbound_nodes": [[["dconv4_2", 0, 0, {}]]]}, {"name": "drop1", "class_name": "Dropout", "config": {"name": "drop1", "trainable": true, "rate": 0.15}, "inbound_nodes": [[["pool1", 0, 0, {}]]]}, {"name": "ddrop1", "class_name": "Dropout", "config": {"name": "ddrop1", "trainable": true, "rate": 0.15}, "inbound_nodes": [[["dpool1", 0, 0, {}]]]}, {"name": "d1drop1", "class_name": "Dropout", "config": {"name": "d1drop1", "trainable": true, "rate": 0.15}, "inbound_nodes": [[["d1pool1", 0, 0, {}]]]}, {"name": "flaten1", "class_name": "Flatten", "config": {"name": "flaten1", "trainable": true}, "inbound_nodes": [[["drop1", 0, 0, {}]]]}, {"name": "dflaten1", "class_name": "Flatten", "config": {"name": "dflaten1", "trainable": true}, "inbound_nodes": [[["ddrop1", 0, 0, {}]]]}, {"name": "d1flaten1", "class_name": "Flatten", "config": {"name": "d1flaten1", "trainable": true}, "inbound_nodes": [[["d1drop1", 0, 0, {}]]]}, {"name": "concatenate_1", "class_name": "Concatenate", "config": {"name": "concatenate_1", "trainable": true, "axis": -1}, "inbound_nodes": [[["flaten1", 0, 0, {}], ["dflaten1", 0, 0, {}], ["d1flaten1", 0, 0, {}]]]}, {"name": "512dense", "class_name": "Dense", "config": {"name": "512dense", "trainable": true, "units": 512, "activation": "relu", "use_bias": true, "kernel_initializer": {"class_name": "VarianceScaling", "config": {"scale": 1.0, "mode": "fan_avg", "distribution": "uniform", "seed": null}}, "bias_initializer": {"class_name": "Zeros", "config": {}}, "kernel_regularizer": null, "bias_regularizer": null, "activity_regularizer": null, "kernel_constraint": null, "bias_constraint": null}, "inbound_nodes": [[["concatenate_1", 0, 0, {}]]]}, {"name": "drop7", "class_name": "Dropout", "config": {"name": "drop7", "trainable": true, "rate": 0.2}, "inbound_nodes": [[["512dense", 0, 0, {}]]]}, {"name": "last_dense", "class_name": "Dense", "config": {"name": "last_dense", "trainable": true, "units": 128, "activation": "relu", "use_bias": true, "kernel_initializer": {"class_name": "VarianceScaling", "config": {"scale": 1.0, "mode": "fan_avg", "distribution": "uniform", "seed": null}}, "bias_initializer": {"class_name": "Zeros", "config": {}}, "kernel_regularizer": null, "bias_regularizer": null, "activity_regularizer": null, "kernel_constraint": null, "bias_constraint": null}, "inbound_nodes": [[["drop7", 0, 0, {}]]]}, {"name": "drop8", "class_name": "Dropout", "config": {"name": "drop8", "trainable": true, "rate": 0.1}, "inbound_nodes": [[["last_dense", 0, 0, {}]]]}, {"name": "out_dense", "class_name": "Dense", "config": {"name": "out_dense", "trainable": true, "units": 5, "activation": "softmax", "use_bias": true, "kernel_initializer": {"class_name": "VarianceScaling", "config": {"scale": 1.0, "mode": "fan_avg", "distribution": "uniform", "seed": null}}, "bias_initializer": {"class_name": "Zeros", "config": {}}, "kernel_regularizer": null, "bias_regularizer": null, "activity_regularizer": null, "kernel_constraint": null, "bias_constraint": null}, "inbound_nodes": [[["drop8", 0, 0, {}]]]}], "input_layers": [["input_1", 0, 0]], "output_layers": [["out_dense", 0, 0]]}, "keras_version": "2.0.3", "backend": "tensorflow"}